data.pth (torch, 5247 bytes, 6 tensors)

l1.weight f4 [8, 56]
000000 38 ab b8 3e cd 94 7f 3e 62 b2 e5 be 3f bf a6 bb
       0.3606813 0.24959107 -0.44862658 -0.0050887163
000010 dd bc 0c 3f 71 45 01 3f 30 db bc 3b 49 18 c2 3e
       0.5497568 0.50496584 0.005763434 0.37909153
000020 4b 31 e0 3d 1e 4f 31 3e 7a da 3b be 0f 3f 1b be
       0.10946902 0.17315337 -0.18345061 -0.15160774
000030 21 d0 1d 3e bb 97 18 be 56 26 5e be 4d b9 d1 3e
       0.15411426 -0.1490163 -0.21694311 0.40961686
000040 a8 a9 f2 3e 5b 56 26 be 0a b0 05 be 7d 59 90 3e
       0.47395062 -0.1624388 -0.13055435 0.28193274
000050 16 d7 f2 3e c9 b4 29 3e 1f f6 8a 3e e6 61 bc 3e
       0.47429723 0.1657287 0.271409 0.3679344
000060 61 e9 8d 3e 36 d1 26 be 00 aa 87 3e 70 68 93 bd
       0.27717116 -0.16290745 0.26496887 -0.07197654
000070 2b 7d 46 3e 07 08 c0 be 35 82 ab 3e 79 6e cf 3e
       0.19383685 -0.37506124 0.33497778 0.4051397
000080 b5 bd 8c 3e 75 e9 d6 be f8 be 2d be c8 6e e2 be
       0.27488485 -0.4197499 -0.1696738 -0.44225144
000090 63 17 7d 3e e8 4b 90 3e 48 30 01 3f 48 0c 00 3f
       0.24715953 0.28182912 0.50464296 0.5001874
0000a0 86 bb bb 3e 67 4e dc be 91 b8 79 3d 0c ab 8a be
       0.36666507 -0.43028566 0.060967032 -0.27083623
0000b0 b4 ff 59 be a6 bd da bd cd af e5 be 8d 75 01 3f
       -0.21288949 -0.10680704 -0.44860688 0.50569993
0000c0 41 84 01 3f 43 7d e8 3e c0 36 c0 bd 24 26 e5 3e
       0.5059243 0.45408067 -0.09385443 0.4475566
0000d0 03 67 dd be 6d 56 8c 3e f6 b1 20 3f 6f d2 85 3e
       -0.43242654 0.27409688 0.62771547 0.2613711
0000e0 1a ab 09 3f a5 2a 11 3e 33 32 1a 3f 37 61 62 3e
       0.53776705 0.14176424 0.6023285 0.22107397
0000f0 0c 86 a2 3e 05 5a ec 3d 06 e0 07 3f 66 ff 06 3f
       0.31742895 0.11540607 0.5307621 0.5273346
000100 50 ac d2 be 80 4c a6 bd 74 7a 15 3f ef 17 1e be
       -0.4114709 -0.0812006 0.58389974 -0.15438817
000110 02 09 3f be e5 d4 02 3f 79 e0 29 3f ae 0d ed 3d
       -0.1865578 0.511061 0.66358143 0.11574875
000120 94 b4 1d 3e dc fd ab 3e 4b 62 f2 3e f8 ce be 3e
       0.15400916 0.33592117 0.47340617 0.3726728
000130 1f bc 6f 3e 81 f4 21 be 83 2a 88 be e4 e2 cb 3e
       0.23411606 -0.15815927 -0.26594934 0.3982154
000140 4a 2f b4 3e 92 8e 95 3e 48 34 2d 3e 8d 50 5e be
       0.3519233 0.29210335 0.16914475 -0.21710415
000150 15 99 26 be a9 7a 3b 3d b6 00 bc 3e ac ec 02 3f
       -0.16269334 0.045771275 0.36719292 0.5114238
000160 ba c6 0f 3f d6 34 88 be 32 a0 f7 3e 3b f5 09 3e
       0.5616261 -0.2660281 0.48364407 0.13472454
000170 e7 df 73 3e 1b 13 88 be 79 8e ea 3e 73 ad f2 3d
       0.2381588 -0.26577076 0.45811823 0.11849489
000180 fc a8 81 3e 77 15 88 be 05 54 90 3e 27 1d e4 bd
       0.25324237 -0.26578876 0.28189102 -0.11138373
000190 76 30 e2 3e 1f 4a e8 3e 91 6e 14 3f e3 c3 0f 3f
       0.44177598 0.4536905 0.5798121 0.56158274
0001a0 18 25 a5 3e d5 95 f6 3e 98 fe 85 bd 8c 88 92 3e
       0.32254863 0.48161188 -0.065427005 0.28619802
0001b0 30 2d 88 be aa b7 47 be 95 d1 c9 3e db ed 15 3f
       -0.26596975 -0.19503656 0.3941771 0.58566064
0001c0 f5 19 ae 3e c4 f0 4c 3e f5 c1 60 3f 93 0a 0c 3f
       0.3400418 0.2001372 0.87795955 0.54703635
0001d0 bd 4a 34 be 76 d6 0a bd e3 20 9b bd bf 57 c1 3e
       -0.17606635 -0.033895932 -0.07574632 0.37762257
0001e0 a5 ee 9b be 0c a7 2f be 0b 53 62 be c6 63 89 3d
       -0.3045551 -0.17153567 -0.22101991 0.067084834
0001f0 b2 1f 70 be fa 73 9b be 2e 42 40 be 06 87 d0 bd
       -0.23449591 -0.3036192 -0.18775246 -0.10182004
000200 f7 91 69 3e 90 77 3a be d6 c9 0a be 52 ea ff 3e
       0.22809587 -0.18209672 -0.13553557 0.4998346
000210 33 08 8b 3d 12 db cf be 23 66 c2 be 4a de 9c 3e
       0.06788673 -0.40596825 -0.3796855 0.30638343
000220 c3 bc 51 3e b2 40 46 be 06 da c8 3e 49 fa 18 be
       0.20482163 -0.19360617 0.3922884 -0.14939226
000230 ac de cf be 78 e7 f0 3e 68 12 d3 3e 0c 78 be 3e
       -0.40599573 0.47051597 0.4122498 0.37200963
000240 5a 4d e1 3e f0 f5 84 be a0 f6 4c be 20 f7 de 3e
       0.44004327 -0.25968885 -0.20015955 0.43547916
000250 c1 f7 16 3e 7c 36 b3 be 8f eb 21 3f bb 50 ab be
       0.14742948 -0.35002506 0.6325006 -0.3346003
000260 a9 92 37 3b 06 67 6d be 84 cf 74 3e 96 2c 98 bd
       0.0028011 -0.23183832 0.23907286 -0.07430379
000270 e6 08 2c be 38 a7 e6 bb fb cb 6a 3f a1 f5 cc 3e
       -0.1680027 -0.007038977 0.917175 0.4003115
000280 48 d2 06 be b8 c8 ea 3e 79 41 b1 bd 7d a9 45 bd
       -0.13166153 0.4585626 -0.08655066 -0.04825734
000290 94 cc 2a be 6f e1 cf be 6f 6c a3 be 95 05 ad 3e
       -0.16679603 -0.4060168 -0.31918666 0.3379332
0002a0 e7 f5 c7 be 66 70 0c be 6e fd 61 3f a4 5a f9 3e
       -0.39054796 -0.13714752 0.8827733 0.48701966
0002b0 46 55 99 bd 39 09 16 be 4a c5 e6 3e 8a 90 4d 3d
       -0.07486968 -0.14651956 0.45072395 0.05018667
0002c0 22 0b 04 3e ff 84 20 3e be fe 07 3f 50 60 a0 bd
       0.12894872 0.15675734 0.5312308 -0.0783087
0002d0 15 6b 45 3d 8f c1 a7 3e d5 e2 e7 3e 0d 61 d4 bd
       0.048197825 0.3276486 0.45290247 -0.103700735
0002e0 05 71 91 bd 96 d8 b2 3e 22 54 eb 3e b2 be e4 be
       -0.07101635 0.34930867 0.45962626 -0.4467674
0002f0 10 6b 96 3d 9d e5 80 3e e1 0b 95 3e e7 55 4c 3e
       0.07344639 0.2517518 0.29110625 0.19954644
000300 00 ff 47 be de 79 a3 3e 84 96 3e be 36 34 09 3e
       -0.19530869 0.31928915 -0.18612105 0.13398823
000310 a2 51 5f 3e 0d 26 0d 3f f4 70 9f be 38 03 30 be
       0.21808484 0.55136186 -0.31140864 -0.17188728
000320 df 4b e1 be 8a 57 cb be 18 3f d8 3e 86 c0 0d 3f
       -0.44003198 -0.39715225 0.42235637 0.5537189
000330 54 80 14 be 83 66 4d 3e dc b0 a0 be a6 89 a6 be
       -0.14502078 0.20058636 -0.31384933 -0.32526892
000340 1d ab 4d be 5c 86 b9 be d0 65 27 be ca 6b 82 be
       -0.20084806 -0.3623532 -0.16347432 -0.25472862
000350 3c 8c d3 3e e6 51 f1 3e fb f5 63 3f 3b 07 d4 be
       0.41317928 0.47132796 0.8904721 -0.41411766
000360 ae 37 b4 be 11 80 2c be 6f b4 c9 3c 05 b9 80 be
       -0.3519873 -0.16845728 0.02462217 -0.2514116
000370 ec b6 bb be 79 17 41 3e d2 18 c2 be 7a da c8 3e
       -0.36662996 0.1885661 -0.3790956 0.39229184
000380 74 e9 c3 3e 42 be ff 3d 1e 0e d4 be b4 6e e2 bd
       0.38264048 0.12487461 -0.4141702 -0.11056271
000390 d3 3f 2c 3f 68 f0 f7 3e ff 25 b1 bd 96 8a b5 3e
       0.6728489 0.48425603 -0.08649825 0.35457295
0003a0 9e 3b f5 3d 46 7f b0 3e ec 1f 99 be 70 ef bd bd
       0.11974262 0.34472102 -0.29907167 -0.09274185
0003b0 cd a1 52 3e 70 85 b3 be 75 7a d0 be 94 ed bd 3e
       0.20569535 -0.35062742 -0.40718427 0.3709532
0003c0 0b 58 06 3f c2 3a af be 6b ad aa bd 9b 65 9e 3e
       0.5247809 -0.34224516 -0.08333858 0.30936894
0003d0 77 c9 fd 3e 12 02 0a 3f d3 60 03 3f 6b a5 ec 3e
       0.49567768 0.5390941 0.5131962 0.46219954
0003e0 64 68 63 3e 2c 5d 45 be 83 ff 9a 3e 31 89 f3 3d
       0.2220779 -0.19273823 0.30273065 0.118914016
0003f0 e3 c8 09 3f 4d 97 9e be fc 11 53 3e ad 7c 89 3e
       0.53822154 -0.30974808 0.20612329 0.26852933

l1.bias f4 [8]
000000 a6 ac e5 3e 45 15 88 3e 2f d8 cf 3e 1d 77 27 3f
       0.44858283 0.26578727 0.40594622 0.6541613
000010 28 c8 30 3f d8 b1 20 3f 51 59 56 3f 4e 86 4e 3f
       0.69055414 0.6277137 0.83730036 0.8067368

l2.weight f4 [8, 8]
000000 ea 59 8d 3f a7 bc 50 3f 43 0a 06 3f 1a 0b 3d bf
       1.1043065 0.8153786 0.5235941 -0.73845065
000010 bf 74 75 3f 38 2f 9b 3e aa 4b 57 bf db 12 ac be
       0.95881265 0.30309463 -0.8409983 -0.33608136
000020 d2 d5 0a 3f 91 af e0 be aa 56 0c bf d1 4b 39 3e
       0.54232514 -0.43883947 -0.5481974 0.18095328
000030 5a 4d be 3e 49 cb 65 be 02 67 9a 3f 8e bb 81 bd
       0.3716839 -0.22440828 1.2062685 -0.06334601
000040 c2 54 10 bf c7 96 9c 3f da 7b 94 3f 7c 9c a4 3f
       -0.5637933 1.2233514 1.1600296 1.2860255
000050 18 a9 06 be 44 a8 9a 3f 16 6e de be 20 c8 9b be
       -0.13150442 1.20826 -0.43443364 -0.3042612
000060 b3 39 28 3f 65 c2 06 be 12 84 4f bf 7c f5 6f 3f
       0.6571304 -0.13160093 -0.810609 0.93733954
000070 b9 57 1b 3f 89 09 fc bd 8e 3c 4c 3f 49 0a 79 bf
       0.6068073 -0.12306506 0.797799 -0.9728132
000080 5c 0a ff be b5 e3 2f bf 27 ff 3b 3f 9d 34 b8 3e
       -0.4981259 -0.6870683 0.73436207 0.3597764
000090 33 4a bb 3e 09 e0 59 3f 4e be 83 3f 0d 68 ce 3f
       0.36580047 0.85107476 1.0292451 1.6125504
0000a0 68 5c 6a 3d 76 da 39 3e 00 b6 aa 3b 5b a1 56 be
       0.05721703 0.18149742 0.0052096844 -0.2095999
0000b0 aa c1 9f be 00 82 55 bb ac 77 f1 bd 1e 8c 37 3e
       -0.3120244 -0.0032578707 -0.11790404 0.17924544
0000c0 87 0b 42 be 18 2d e4 3e cd b6 56 bf 06 99 47 3f
       -0.1894971 0.44565654 -0.8387268 0.7796787
0000d0 c0 67 a1 bd f8 0a b1 bc 12 12 91 3f 51 8c 46 bf
       -0.07881117 -0.021611676 1.133364 -0.77557856
0000e0 f6 43 82 3f da ab 05 be 7b f4 d8 3e 35 24 42 be
       1.017699 -0.13053837 0.42374024 -0.18959124
0000f0 2b fc 87 3f 73 89 99 3b 34 75 09 3f 15 b8 5c bf
       1.062383 0.0046855747 0.5369446 -0.86218387

l2.bias f4 [8]
000000 19 05 5b be 39 02 1f 3f c0 fa 23 be 1d 8c cd 3e
       -0.21388663 0.62112767 -0.16013622 0.4014596
000010 62 8b 3d 3f 3e 75 81 be f3 71 46 3d f7 cb 95 3e
       0.74040806 -0.2528476 0.048448514 0.29257175

l3.weight f4 [6, 8]
000000 fa ab 17 bf 44 ac b8 bd 07 f2 25 3f 8b 18 be 3e
       -0.5924679 -0.09017232 0.6482243 0.371281
000010 31 ab 6e bf ca 28 5a 3e b8 23 4b 3f f7 6d 7f bf
       -0.9322997 0.21304622 0.7935138 -0.9977717
000020 79 1f 41 bf 15 81 0f 3f 73 d0 ac bf 7c a6 bb bf
       -0.7543865 0.5605634 -1.3501114 -1.4660182
000030 8a fc 90 3f 3e 78 2e 3e 7e 31 9b bf 25 8c 51 bf
       1.1327069 0.17038056 -1.2124479 -0.8185447
000040 7f dc 95 bf b0 9c 1f 3f 7b 89 98 bf 80 db 4e 3f
       -1.1707915 0.6234846 -1.1916956 0.8080368
000050 06 e7 a3 bd 7f 6b a4 be 24 65 2f 3f 80 45 18 3f
       -0.080030486 -0.32113263 0.68513703 0.5948105
000060 63 6c 32 3f 40 09 83 3e ce 31 56 bf 07 20 cd 3e
       0.69696635 0.25592995 -0.83669746 0.40063497
000070 3c b6 a7 bf c5 00 ab be a4 45 90 bf 97 c3 e5 3e
       -1.3102489 -0.33399025 -1.1271253 0.44875786
000080 1b 8b 56 3f d1 5c 89 bf 77 c7 a4 3e ec 7d 87 bf
       0.8380601 -1.073145 0.3218343 -1.0585303
000090 6c cb ae be 11 54 a2 3e bc 97 0a bf 98 4f 62 3e
       -0.34139574 0.31704763 -0.5413778 0.22100675
0000a0 ab c9 11 bf 18 8e 90 bf 5e f4 44 3f 17 ea 81 bf
       -0.56948346 -1.1293364 0.76935375 -1.0149564
0000b0 8d db c1 3e 08 1d 71 3d 80 25 88 bf 23 cb 95 bf
       0.37862816 0.058865577 -1.0636444 -1.1702617

l3.bias f4 [6]
000000 e4 a8 0a be 97 47 11 3f ee 0e 3f be af f3 86 3c
       -0.13540989 0.5674986 -0.18658039 0.01647362
000010 50 85 b9 be 7f c5 7a 3e
       -0.36234522 0.24489401
