data.pth (torch, 5247 bytes, 6 tensors)

l1.weight f4 [8, 56]
000000 8c 6e 05 40 d6 ec 81 3f b3 68 d8 3f fa 32 27 be
       2.0848722 1.0150402 1.6906952 -0.1632804
000010 b5 13 b2 bf dd 8d 87 bf 05 95 8c 3f f9 88 c0 bd
       -1.3912264 -1.0590168 1.0982977 -0.094011255
000020 5a 07 30 c0 04 3e ff bf 11 18 95 3f fb de 82 3f
       -2.7504487 -1.9940801 1.164797 1.0224298
000030 dc 61 0d c0 cf a6 a0 3f c7 45 cc 3f a6 0f ca bf
       -2.2090979 1.2550906 1.5958794 -1.5786026
000040 2e eb 84 bf fc 82 7e 3f 35 2b 94 3f 10 e6 00 40
       -1.0384271 0.99418616 1.1575686 2.014042
000050 c5 98 8f bf e5 55 31 c0 ab a0 2b c0 69 7f 53 be
       -1.1218497 -2.7708676 -2.6816814 -0.20654072
000060 63 f2 da 3f 92 1f 82 3f fb bd cf 3f ad 09 e6 bf
       1.710522 1.0165884 1.6229852 -1.7971703
000070 e5 57 36 c0 40 b2 0f 3f d0 1b 02 40 31 c1 e5 3f
       -2.8491147 0.5613136 2.0329475 1.7949582
000080 ed 9f 14 40 d5 a1 54 3f 5d 01 7a 3f 22 30 0f 3f
       2.322261 0.83059436 0.9765833 0.5593282
000090 9a fb 82 3f 95 22 30 c0 0f 97 29 40 90 c1 ce bf
       1.0233033 -2.7521107 2.649845 -1.615282
0000a0 b9 8d aa bf cf 21 59 3f e0 f5 89 3f 5a ef 72 3f
       -1.33245 0.8481721 1.077816 0.9489647
0000b0 62 82 6e 3f 52 21 87 3f 8d e9 cc 3f bd 58 15 40
       0.931677 1.0557044 1.6008774 2.3335412
0000c0 53 d2 b6 bf 11 8b dd 3f 4d 3f da bf 6c 0e 97 bf
       -1.4282936 1.7308065 -1.7050568 -1.1801276
0000d0 6e 75 56 3f ea 80 30 c0 03 98 00 c0 02 fe cc 3f
       0.83772933 -2.7578683 -2.009278 1.6015017
0000e0 bc c0 e0 bf bb 98 55 bf e5 8f 22 c0 53 20 7f bf
       -1.7558818 -0.83436173 -2.5400326 -0.996587
0000f0 77 c1 ba 3f 07 6a 81 3f 85 08 8b bf 92 63 fd be
       1.4590291 1.0110482 -1.0861975 -0.4949003
000100 0f 3d 1d 40 d4 e8 f9 3f a8 b7 9c bf 8e de e0 3e
       2.4568517 1.9524179 -1.2243547 0.43919796
000110 a8 f8 f0 3f 17 f5 b0 bf 2a ad d9 bf 5a ba d4 3f
       1.8825884 -1.3824795 -1.700597 1.661937
000120 5d ed 94 3f 25 7f 85 bf d3 dd 93 bf b3 ac cc bf
       1.1634938 -1.0429426 -1.155207 -1.5990204
000130 29 bc 6c 3f e6 1d 2d 40 de b8 2d 40 fc 9e b5 3e
       0.9247461 2.7049499 2.7144084 0.35472858
000140 d8 a5 a8 bf ab cb 60 bf d4 a4 b5 bf f1 34 d5 3f
       -1.3175611 -0.8781077 -1.4190927 1.6656781
000150 27 03 30 40 a9 77 e0 bf 5e 40 c0 bf ca 08 bd bf
       2.7501924 -1.7536517 -1.5019643 -1.4768307
000160 90 14 f7 bf 1e a0 95 3e f6 6f 81 bf 87 8c f3 bf
       -1.930315 0.29223722 -1.0112293 -1.902726
000170 e9 28 72 bf 9c 35 30 40 d4 ea 07 c0 54 7c f1 3f
       -0.94593674 2.753272 -2.1237078 1.8866067
000180 5f 14 a3 3f 16 57 c0 3e c6 a0 55 bf f8 07 cb 3e
       1.2740592 0.3756644 -0.83448446 0.39654517
000190 79 bd 88 bf 62 de 95 bf 05 33 33 c0 4a 5f e2 bf
       -1.0682822 -1.1708491 -2.799989 -1.768533
0001a0 22 e7 be 3f 9e ee c3 bf cd 85 c8 3f d3 0a 9b 3f
       1.4914286 -1.5307195 1.5665833 1.2112678
0001b0 3e 8e af 3e 8d 6e 25 40 0f fe 0a 40 63 20 b7 bf
       0.3428821 2.5848725 2.1717565 -1.4306759
0001c0 53 92 5a bf 5d c7 66 bf 6f 8b 47 40 07 7c 01 40
       -0.85379523 -0.90147954 3.1178854 2.023195
0001d0 45 03 e7 bf d2 da d2 bf 65 9a b8 bf e6 60 e7 bf
       -1.8047873 -1.6473029 -1.4422117 -1.8076446
0001e0 e5 a8 13 40 4d f3 ba 3f fd e7 c1 bf 76 85 dc 3f
       2.3071835 1.46055 -1.5148922 1.7228229
0001f0 0b ee cf 3f af e9 bf bf 46 8e ec bf 10 08 df be
       1.624452 -1.499319 -1.8480918 -0.4356084
000200 ee 8d af bf 43 22 b0 bf ce 0a b5 bf 06 d8 30 bf
       -1.3715189 -1.3760456 -1.4143922 -0.69079626
000210 a3 bf a8 bf 26 54 04 40 9e a6 09 40 d9 76 cf bf
       -1.3183483 2.067636 2.1507945 -1.6208144
000220 8f 3c 52 bf 67 6c a8 bf a1 c1 45 bf 5d 5b c4 3f
       -0.82123655 -1.3158082 -0.7724858 1.5340382
000230 25 32 f8 3f f8 35 33 40 96 22 2a bf ff 3d 9e bf
       1.9390303 2.800169 -0.66459024 -1.236267
000240 96 66 84 bf df cd 67 3f 8b 01 a1 bf c2 db 35 40
       -1.0343807 0.9054851 -1.2578596 2.841538
000250 b9 77 3e bf 78 ce 01 40 2d 7e cb bf 4b 42 da bf
       -0.7440143 2.0282269 -1.5897881 -1.7051481
000260 57 d1 e2 bf d5 99 84 3f 31 71 45 bf 2a 72 cf 3f
       -1.7720135 1.0359446 -0.7712584 1.6206715
000270 49 5c 96 bf 66 eb bf bf a3 5b 5c 40 0b b7 8a bf
       -1.1746913 -1.4993713 3.443093 -1.083711
000280 45 78 f5 bf 9c 2d 9c bf ba 8b c4 3f ca 31 c8 bf
       -1.9177328 -1.2201419 1.5355141 -1.5640194
000290 24 4d 6e 3f af db 01 40 a0 78 0f c0 26 6b 04 c0
       0.9308646 2.0290334 -2.2417374 -2.0690398
0002a0 fd 74 af 3f 86 8a 7b 3f b7 cd c9 3f 3a 24 55 3f
       1.3707577 0.98258245 1.5765904 0.832584
0002b0 c1 dd 52 3e ca 2b 25 bf b7 5d b7 bf 5c 7c 86 3f
       0.20592405 -0.6451994 -1.4325475 1.0506701
0002c0 e5 34 a0 3f 25 f2 bc 3f f0 29 f2 bf 96 52 04 c0
       1.2516142 1.4761397 -1.8919048 -2.0675406
0002d0 74 5f af 3f 64 eb ff bf 27 08 0c c0 c3 08 bb 3e
       1.3701005 -1.999371 -2.1879976 0.36530122
0002e0 e0 cb a5 3e 84 d3 b9 bf ab ba b5 bf 8b 50 c1 3f
       0.32382107 -1.4517674 -1.4197592 1.5102705
0002f0 21 bc 8b 3e c5 e8 ef 3f fe ad f5 3f ec d5 9a 3f
       0.27291968 1.8742911 1.9193723 1.2096534
000300 fd 1b a7 3f e5 7d b8 bf 2c 98 89 3f 31 ec b3 3f
       1.3055416 -1.441342 1.0749564 1.4056455
000310 ad 8d fb 3f af 45 9a 3f 67 a8 b5 3f 09 4b 9a 3f
       1.9652611 1.2052516 1.4192017 1.2054149
000320 b3 29 a4 3f 4d 34 34 c0 03 17 c0 bf 74 66 8f 3f
       1.2825226 -2.8156922 -1.5007023 1.1203141
000330 42 64 58 3f 92 7d f3 3f 0e 8e fc 3f 83 61 31 bf
       0.8452798 1.9022696 1.9730852 -0.69289416
000340 ec 2c 3c 3e 92 15 3b c0 da 54 61 3f 21 2c 06 c0
       0.18376511 -2.9231915 0.880201 -2.0964434
000350 80 a8 c4 bf 78 08 9d bf 0d 77 ea 3f 57 ac b9 3f
       -1.5363922 -1.226821 1.8317581 1.4505719
000360 16 6a 47 bd da c4 a6 3f b8 b9 b8 3f 81 e8 2e bf
       -0.048685156 1.3028824 1.4431677 -0.6832352
000370 dc 33 36 c0 7a 53 e7 3f f8 0c 99 be f9 df ac 3e
       -2.8469152 1.807235 -0.29892707 0.33764628
000380 9b c7 d4 bf cf ed 6b bf 02 a8 0c c0 63 36 85 bf
       -1.6623415 -0.9215974 -2.1977544 -1.0407223
000390 a5 25 7b 3f 79 94 9c 3f 7e 14 9a 3f 76 10 c7 be
       0.98104316 1.223281 1.2037504 -0.38879746
0003a0 1f b8 28 bf cc e6 5c bf 67 78 f2 3f 05 bc 0b 40
       -0.65905946 -0.8628967 1.8942994 2.1833508
0003b0 d4 e1 55 bf 2d fa e5 3f 80 ee 07 40 cb 3f 43 3f
       -0.8354771 1.7966973 2.123932 0.76269215
0003c0 51 f8 65 3f 8a 55 d5 3f 5c 9e ba 3f dd 9e c9 bf
       0.89832026 1.666673 1.4579577 -1.5751606
0003d0 fb be 45 3f cf 03 a3 bf 0c 40 a4 bf 89 b8 0d bf
       0.7724454 -1.2735537 -1.2832046 -0.55359703
0003e0 f4 26 a8 bf f1 8c ba 3f d0 c0 92 bf 19 af a8 bf
       -1.3136888 1.4574262 -1.1465092 -1.3178436
0003f0 78 36 99 bf 6e 58 cd bf 7b 12 bb bf 19 bd a1 bf
       -1.1969748 -1.6042612 -1.4615015 -1.2635833

l1.bias f4 [8]
000000 ad ba 4d 3e 23 cf 15 3e b1 c8 3e 3f c1 f8 1e 3f
       0.20090742 0.14629798 0.7452498 0.6209832
000010 fa b3 b1 be 37 f7 33 40 94 61 68 bf 23 3b 90 3e
       -0.34707624 2.8119638 -0.9077389 0.28170118

l2.weight f4 [8, 8]
000000 76 35 d9 bf 75 a2 1f 40 dc 0d 20 bf 85 36 81 40
       -1.696944 2.4942906 -0.6252115 4.037905
000010 46 67 84 bf 46 85 46 c0 e0 21 89 bf 12 f4 06 c0
       -1.0344017 -3.1018844 -1.0713463 -2.1086469
000020 e2 a6 b0 3f 09 66 6d bf b8 a7 83 40 cb 88 dd 3f
       1.3800929 -0.9273382 4.1142235 1.7307371
000030 50 99 e7 bf aa f2 88 40 1b 6c bb be 57 5d 01 c0
       -1.8093662 4.279622 -0.36605915 -2.021322
000040 a9 37 18 40 4d 5c 1d 3f ba 16 4e c0 c8 7b 0a c0
       2.3783972 0.61468965 -3.2201371 -2.163805
000050 6f 2e 4b 40 f9 da 72 c0 93 92 e1 3f c4 32 12 40
       3.174709 -3.794615 1.7622856 2.2843485
000060 d3 c1 3f c0 29 e6 6a 40 f1 33 18 3e f1 73 a2 bf
       -2.996205 3.6702979 0.14863564 -1.2691633
000070 7b d3 e0 3f f1 de 91 3f cd 62 48 c0 39 5f 6a 3e
       1.7564539 1.1396161 -3.1310303 0.22887887
000080 f4 0f 5c 40 89 70 51 c0 27 52 48 bf 10 0c d3 3f
       3.4384737 -3.2724936 -0.78250355 1.6488056
000090 51 cc ac bf 59 72 e8 bf 3d 8c 61 40 06 49 36 bf
       -1.3499852 -1.8159896 3.5241845 -0.71205175
0000a0 ac 5d b3 be 6f ee 4a bf 1a 24 f8 3f 69 1e 73 40
       -0.35032403 -0.7927007 1.9386017 3.798731
0000b0 9d 6c 3d c0 35 95 76 3f 69 16 0a bd f9 45 41 c0
       -2.9597542 0.9632142 -0.03371278 -3.0198958
0000c0 bf f3 4d 40 ff b9 65 c0 fc 2a 13 be 7e 90 82 3f
       3.218002 -3.5894773 -0.14371866 1.0200346
0000d0 a7 bf af bf e6 d4 00 c0 56 16 58 40 d0 1c 0b bd
       -1.3730363 -2.0129943 3.3763633 -0.033963025
0000e0 ca 1c ec bf 7f f9 14 40 bd 76 ab 3f 9b 85 2d bf
       -1.8446286 2.327728 1.3395611 -0.6778199
0000f0 83 5e 13 40 84 b6 86 40 40 ab 01 c0 55 e4 50 40
       2.3026435 4.2097797 -2.0260773 3.2639363

l2.bias f4 [8]
000000 e4 12 aa 3f 59 b6 2f bf 23 f4 8e 3f 8f 8a bc 3e
       1.3287015 -0.68637615 1.1168255 0.36824462
000010 05 80 7a be 9f 6d 75 be 2b 74 36 3e 5e 92 19 3f
       -0.24462898 -0.23967598 0.17817752 0.59988964

l3.weight f4 [6, 8]
000000 31 71 42 c0 5e 72 35 c0 4d a1 0c 40 ec a0 0f c0
       -3.0381587 -2.8351054 2.197345 -2.244197
000010 52 67 eb 3f 9d 56 55 c0 d5 59 f4 3f 2b 5e d0 3d
       1.8390906 -3.3334115 1.9089915 0.10174211
000020 1d 3b 87 c0 f6 d2 01 40 8b 57 86 3f a3 45 90 3f
       -4.225966 2.028501 1.0495466 1.1271251
000030 8f 67 fe bf 78 6d e9 bf b9 ec 06 c0 b9 78 8c 3f
       -1.9875354 -1.8236532 -2.1081984 1.0974342
000040 fb 80 00 40 91 89 6c 3f cc 37 67 c0 bc 4b 85 3f
       2.0078723 0.9239741 -3.6127806 1.0413737
000050 fe 39 0e c0 69 29 e3 3f 2f 67 3f c0 9e 82 8f 3e
       -2.2222896 1.7747012 -2.9906728 0.2802934
000060 85 5e f9 3f 20 c8 90 c0 ab 4e f4 3f 32 12 b3 3f
       1.948197 -4.5244293 1.9086508 1.3989928
000070 b1 98 dc bf 4a eb f0 bf eb 0d 27 c0 e1 d2 7f 3f
       -1.7234098 -1.8821805 -2.6102245 0.9993115
000080 e0 43 eb 3f 70 62 2d 3f 20 a3 d2 3f 46 c9 0b c0
       1.8380089 0.6772833 1.6456032 -2.1841598
000090 95 65 4c 3f ab 7f a5 3e ac 7a 87 3f dd 2a 87 c0
       0.798425 0.32323965 1.0584311 -4.2239823
0000a0 7f bd 11 bf 01 90 5f 3f 61 11 5a c0 d9 e8 58 c0
       -0.56929773 0.8732911 -3.4073107 -3.389212
0000b0 cd ae 8c 3f a8 cf 2b 3f 7b 0f 8d 3f 4f ad c1 3f
       1.0990845 0.67113733 1.1020349 1.5131015

l3.bias f4 [6]
000000 e7 9a a2 3e 6c 47 d0 3e 8b 44 8d bc 06 1b 85 bc
       0.31758806 0.4067949 -0.017244598 -0.016248237
000010 db 71 87 be b7 78 c4 be
       -0.26454052 -0.38373348
