data.pth (torch, 5439 bytes, 6 tensors)

l1.weight f4 [8, 57]
-0.3099587 -0.12531634 -0.0020408311 0.29126692 0.5483965 0.46612853 -0.09402714 0.2804473
0.5039458 0.42713127 -0.12700854 0.023415621 0.45297548 -0.17808338 -0.07702521 0.3593829
0.24836491 -0.06259053 -0.10365799 -0.1973746 0.32170254 0.33479962 0.5823544 0.0054602847
0.029295254 -0.12873709 -0.2115444 -0.11456273 0.3875091 0.31751087 -0.06925933 -0.116125576
-0.14145233 -0.2087999 -0.35851565 -0.13692494 -0.03197292 -0.04943381 0.6294433 -0.35304028
0.34884256 0.5645521 -0.3100097 -0.07540279 -0.09867473 -0.12947263 -0.17659257 0.06440322
-0.24005014 0.5134015 -0.1539049 0.41211367 0.49236465 -0.24232046 0.46808788 0.69290113
-0.09162451 -0.60283715 -0.09810542 -0.07800992 0.34685102 0.4149531 0.3786053 -0.12871285
0.3065519 -0.102415375 -0.10155817 0.027071271 0.6610763 -0.30474183 -0.11547695 -0.11612524
0.33991423 0.5425736 0.053299654 -0.030193778 -0.15026335 0.49735975 -0.32661036 -0.41576394
-0.2866475 0.059909567 -0.30007446 -0.17842452 -0.30278146 -0.3017644 -0.29697576 0.17700648
-0.21522024 -0.14555703 -0.58065325 0.7963602 -0.117621146 0.04480889 0.025433123 -0.5849257
-0.5925451 0.50046974 0.7442282 0.8903887 -0.21402098 0.647322 -0.05639107 -0.08563278
0.06615629 -0.3679409 0.46980616 -0.15106556 -0.32214025 0.503588 0.85296035 -0.3566361
0.78183675 -0.23665825 0.081150696 -0.062217765 -0.058817133 -0.083460584 0.010362104 0.037909746
0.02425936 -0.1305346 -0.037326366 -0.074454814 0.02558387 0.033245757 -0.048358932 0.0944759
0.0066482066 -0.058142878 -0.04632076 0.084873796 -0.022180757 0.014257669 -0.009576976 0.11247185
-0.00043059886 -0.035048805 0.011890784 0.052429795 0.08053951 0.044430643 -0.036054082 -0.012934163
0.050716743 0.008685604 0.037978128 0.13006878 -0.11185015 -0.010068862 -0.11892319 0.08954291
0.07426165 0.012079701 0.007434264 0.10264154 -0.013998099 -0.089692004 -0.114118904 -0.064599395
0.1031804 0.10781717 -0.033401676 -0.11423078 -0.10285336 0.07369842 -0.026104897 -0.113551326
-0.028766356 0.04705675 0.0031204836 0.55422926 0.5296807 -0.7555978 -0.06100784 0.020061368
-0.21178189 -0.14866218 0.35903195 0.5708529 0.5849233 -0.3554687 -0.15140447 0.47270164
-0.24767883 -0.47471127 0.34407753 0.036632087 -0.31356448 -0.19063857 0.82030165 0.056062452
0.67742527 0.64854604 0.29447016 0.7115997 0.4126294 -0.18149157 0.4494569 0.34072858
0.7487462 -0.43093643 0.7506567 0.5292791 0.6980658 -0.47046265 -0.19883947 -0.41621086
0.38346702 0.6705153 0.8664224 -0.15097433 -0.18897727 -0.45951247 0.3911515 -0.2863844
-0.34035861 0.030649588 -0.7278237 0.6796642 -0.13724196 0.4578385 0.3530578 -0.2785638
-0.53670293 0.55609924 -0.14931197 0.3249779 -0.44890967 -0.14226975 0.06975091 0.14718911
0.50866616 0.52089506 0.621662 0.3296677 0.17689882 0.11129831 0.6801075 -0.34323302
0.22905675 0.61960113 0.949447 0.40433928 0.35032398 0.6976892 0.5208736 -0.40637788
0.35934547 0.2950494 0.19628726 0.25290483 0.19868489 -0.17948583 0.66053545 -0.26979136
00000000: e8b2 9ebe ed52 00be 77bf 05bb f020 953e
00000010: b763 0c3f 66a8 ee3e 4d91 c0bd ca96 8f3e
00000020: 9802 013f f3b0 da3e 870e 02be 1ed2 bf3c
00000030: 67ec e73e 7d5b 36be 65bf 9dbd 0901 b83e
00000040: 5f53 7e3e 772f 80bd a44a d4bd 911c 4abe
00000050: 32b6 a43e db6a ab3e 2e15 153f 30ec b23b
00000060: 9afc ef3c a8d3 03be 189f 58be dd9f eabd
00000070: 9867 c63e c990 a23e d6d7 8dbd 3fd3 edbd
00000080: e1d8 10be a4cf 55be 5d8f b7be 0d36 0cbe
00000090: 09f6 02bd 1b7b 4abd 3223 213f b2c1 b4be
000000a0: 7e9b b23e 7d86 103f 97b9 9ebe c76c 9abd
000000b0: fa15 cabd 7994 04be afd4 34be d6e5 833d
000000c0: b4cf 75be 486e 033f 3f99 1dbe 9000 d33e
000000d0: 3817 fc3e db22 78be 37a9 ef3e f861 313f
000000e0: a2a5 bbbd 8953 1abf 7feb c8bd aac3 9fbd
000000f0: 7596 b13e bc74 d43e 8ed8 c13e 4dcd 03be
00000100: 5ff4 9c3e 27bf d1bd bbfd cfbd 92c4 dd3c
00000110: 4c3c 293f 1f07 9cbe 2e7f ecbd 12d3 edbd
00000120: 3d09 ae3e 1ae6 0a3f bd50 5a3d f158 f7bc
00000130: a3de 19be f0a5 fe3e 7939 a7be 03df d4be
00000140: 76c3 92be bc63 753d 5ca3 99be ebb4 36be
00000150: 2c06 9bbe dd80 9abe 350d 98be 3041 353e
00000160: b262 5cbe e70c 15be b1a5 14bf 43de 4b3f
00000170: 5be3 f0bd 8789 373d 2059 d03c b1bd 15bf
00000180: 09b1 17bf c91e 003f bd85 3e3f 84f0 633f
00000190: 5128 5bbe e5b6 253f 53fa 66bd 3d60 afbd
000001a0: f37c 873d c062 bcbe 6f8a f03e eeb0 1abe
000001b0: 91ef a4be 25eb 003f 9c5b 5a3f 0299 b6be
000001c0: 7426 483f 8a56 72be 5632 a63d 0ed8 7ebd
000001d0: 3cea 70bd 62ed aabd d0c5 293c 4047 1b3d
000001e0: 91bb c63c ddaa 05be 88e3 18bd c47b 98bd
000001f0: 4495 d13c b42c 083d 0414 46bd 957c c13d
00000200: 33d9 d93b 3a27 6ebd d6ba 3dbd 50d2 ad3d
00000210: 6bb4 b5bc 0099 693c c0e8 1cbc a457 e63d
00000220: 00c2 e1b9 568f 0fbd 90d1 423c a0c0 563d
00000230: e6f1 a43d e8fc 353d 72ad 13bd d0e9 53bc
00000240: 5cbc 4f3d 104e 0e3c f48e 1b3d c030 053e
00000250: b111 e5bd def7 24bc 008e f3bd 4662 b73d
00000260: 7e16 983d f0e9 453c 209b f33b ba35 d23d
00000270: 4858 65bc 71b0 b7bd 2cb7 e9bd b04c 84bd
00000280: 3f50 d33d 40cf dc3d 32d0 08bd d4f1 e9bd
00000290: c8a4 d2bd 32ef 963d f0d9 d5bc 998d e8bd
000002a0: 6ca7 ebbc 94be 403d 0781 4c3b f8e1 0d3f
000002b0: 2899 073f db6e 41bf 5be3 79bd bd57 a43c
000002c0: 5add 58be e63a 18be 09d3 b73e 6a23 123f
000002d0: 89bd 153f feff b5be c609 1bbe f305 f23e
000002e0: 859f 7dbe 5b0d f3be ee2a b03e 870b 163d
000002f0: 868b a0be c236 43be 4aff 513f bea1 653d
00000300: be6b 2d3f 1d07 263f cbc4 963e 662b 363f
00000310: 2944 d33e edd8 39be 371f e63e fa73 ae3e
00000320: d5ad 3f3f b3a3 dcbe 0a2b 403f d67e 073f
00000330: 71b4 323f 7be0 f0be 939c 4bbe 9719 d5be
00000340: ca55 c43e e4a6 2b3f dccd 5d3f 0499 1abe
00000350: 4283 41be 3845 ebbe 0245 c83e faa0 92be
00000360: 7c43 aebe d814 fb3c a752 3abf 79fe 2d3f
00000370: 2889 0cbe cf69 ea3e fec3 b43e ea9f 8ebe
00000380: 5d65 09bf 855c 0e3f 3de5 18be 8163 a63e
00000390: 7dd7 e5be 29af 11be 91d9 8e3d beb8 163e
000003a0: f237 023f 6159 053f 3e25 1f3f 34ca a83e
000003b0: f724 353e 5ef0 e33d 861b 2e3f 3dbc afbe
000003c0: da8d 6a3e 2e9e 1e3f f50e 733f 8f05 cf3e
000003d0: aa5d b33e c29b 323f f957 053f c310 d0be
000003e0: 21fc b73e b710 973e 87ff 483e be7c 813e
000003f0: 0d74 4b3e 22cb 37be da18 293f 1822 8abe

l1.bias f4 [8]
0.6316112 0.8886426 -0.13719904 0.7833858 0.54577255 0.58255625 0.7310612 0.81277084
00000000: 46b1 213f 157e 633f e87d 0cbe f98b 483f
00000010: c0b7 0b3f 6822 153f d426 3b3f c011 503f

l2.weight f4 [8, 8]
1.0964313 0.1609962 -0.27105334 0.3302139 1.0716773 0.94320464 -0.9680426 -0.3859725
0.3346552 0.31594208 0.18076912 -0.27279896 1.1987001 -0.02081858 -0.27389812 -1.1505901
0.032576323 0.033920974 -0.2705627 -0.15246306 0.08851537 -0.28531724 -0.33631274 0.21010229
-0.015178529 -0.4769177 -0.21594384 0.29185528 0.70850706 0.87540317 -0.953928 -0.22775085
0.4653352 1.4909071 0.25909868 -0.76688254 0.3204614 -0.8570316 0.94461244 0.3563929
0.07819077 0.5898481 0.12052531 1.4649136 -0.49323025 0.35729054 0.9077156 -0.08754415
1.1733583 1.0243297 0.12077586 0.5945422 0.26099285 0.97057146 -0.4035631 -0.9504291
0.9914286 -0.6713856 0.15559644 1.2618271 0.12957989 -0.101373665 0.108622134 1.8028537
00000000: dc57 8c3f 30dc 243e 81c7 8abe cc11 a93e
00000010: b92c 893f dc75 713f a4d1 77bf 309e c5be
00000020: ed57 ab3e 29c3 a13e 8a1b 393e 4eac 8bbe
00000030: 016f 993f ba8b aabc 603c 8cbe 8946 93bf
00000040: c06e 053d b8f0 0a3d 3287 8abe 471f 1cbe
00000050: 8c47 b53d 1a15 92be 2f31 acbe 0e25 573e
00000060: 5daf 78bc 8f2e f4be 6220 5dbe 0e6e 953e
00000070: b860 353f 6c1a 603f a034 74bf 8537 69be
00000080: 6a40 ee3e 0bd6 be3f 95a8 843e 6a52 44bf
00000090: 8413 a43e 6c66 5bbf 1fd2 713f 2179 b63e
000000a0: 7b22 a03d 4900 173f f9d5 f63d 4a82 bb3f
000000b0: ad88 fcbe c9ee b63e 0d60 683f 594a b3bd
000000c0: 9b30 963f 3c1d 833f 5659 f73d eb33 183f
000000d0: dba0 853e 5f77 783f d39f cebe 524f 73bf
000000e0: 44ce 7d3f eddf 2bbf ac54 1f3e 8d83 a13f
000000f0: 97b0 043e ff9c cfbd 4875 de3d e9c3 e63f

l2.bias f4 [8]
0.35640472 -0.15799591 -0.23384993 0.3918186 0.40525582 0.57666516 0.45324072 0.34153423
00000000: ae7a b63e aec9 21be 5b76 6fbe 739c c83e
00000010: b17d cf3e 54a0 133f 2b0f e83e 93dd ae3e

l3.weight f4 [6, 8]
0.3233075 1.0843855 0.33327487 0.9304191 -0.86937517 -1.000721 0.14770232 -0.75668555
-0.883866 -1.8571101 0.1579133 -0.99805135 0.9340982 0.6614432 0.39372736 -1.3435402
0.34592316 -1.1407136 -0.22385885 0.49747047 -0.97860456 0.23232351 0.5761587 0.18725033
0.24668767 0.7280901 -0.19083355 -1.048911 0.25854164 -0.31650782 0.31441185 -0.4006919
-0.97834074 -0.050188266 0.22677872 -1.3549446 -1.2715081 0.78837603 -0.83747464 0.7591501
-0.7616052 -0.7200229 -0.0290986 -0.6056998 1.0335611 -0.19512686 -1.4491153 0.5596283
00000000: 9088 a53e 25cd 8a3f 01a3 aa3e f22f 6e3f
00000010: 5f8f 5ebf a017 80bf 473f 173e 25b6 41bf
00000020: 0b45 62bf c9b5 edbf 06b4 213e 4b80 7fbf
00000030: 0f21 6f3f 5754 293f a296 c93e 20f9 abbf
00000040: d71c b13e e702 92bf 413b 65be 73b4 fe3e
00000050: d485 7abf 37e6 6d3e 237f 133f 8dbe 3f3e
00000060: b19b 7c3e 1d64 3a3f df69 43be b742 86bf
00000070: 925f 843e 500d a2be 97fa a03e 7d27 cdbe
00000080: 8a74 7abf 3692 4dbd ae38 683e d36e adbf
00000090: c7c0 a2bf 03d3 493f bd64 56bf a957 423f
000000a0: 8ff8 42bf 6c53 38bf 3060 eebc 240f 1bbf
000000b0: bb4b 843f 56cf 47be 9c7c b9bf cd43 0f3f

l3.bias f4 [6]
0.032889806 0.12652627 -0.13188036 -0.64696294 0.05776886 0.27169365
00000000: 76b7 063d 1a90 013e a50b 07be 5d9f 25bf
00000010: 0a9f 6c3d 6e1b 8b3e
